model.pt (torch, 294231 bytes, 11 tensors)

embedding.weight f4 [48, 64]
000000 00 00 00 00 00 00 00 00 00 00 00 00 00 00 00 00
       0.0 0.0 0.0 0.0
000010 00 00 00 00 00 00 00 00 00 00 00 00 00 00 00 00
       0.0 0.0 0.0 0.0
000020 00 00 00 00 00 00 00 00 00 00 00 00 00 00 00 00
       0.0 0.0 0.0 0.0
000030 00 00 00 00 00 00 00 00 00 00 00 00 00 00 00 00
       0.0 0.0 0.0 0.0
000040 00 00 00 00 00 00 00 00 00 00 00 00 00 00 00 00
       0.0 0.0 0.0 0.0
000050 00 00 00 00 00 00 00 00 00 00 00 00 00 00 00 00
       0.0 0.0 0.0 0.0
000060 00 00 00 00 00 00 00 00 00 00 00 00 00 00 00 00
       0.0 0.0 0.0 0.0
000070 00 00 00 00 00 00 00 00 00 00 00 00 00 00 00 00
       0.0 0.0 0.0 0.0
000080 00 00 00 00 00 00 00 00 00 00 00 00 00 00 00 00
       0.0 0.0 0.0 0.0
000090 00 00 00 00 00 00 00 00 00 00 00 00 00 00 00 00
       0.0 0.0 0.0 0.0
0000a0 00 00 00 00 00 00 00 00 00 00 00 00 00 00 00 00
       0.0 0.0 0.0 0.0
0000b0 00 00 00 00 00 00 00 00 00 00 00 00 00 00 00 00
       0.0 0.0 0.0 0.0
0000c0 00 00 00 00 00 00 00 00 00 00 00 00 00 00 00 00
       0.0 0.0 0.0 0.0
0000d0 00 00 00 00 00 00 00 00 00 00 00 00 00 00 00 00
       0.0 0.0 0.0 0.0
0000e0 00 00 00 00 00 00 00 00 00 00 00 00 00 00 00 00
       0.0 0.0 0.0 0.0
0000f0 00 00 00 00 00 00 00 00 00 00 00 00 00 00 00 00
       0.0 0.0 0.0 0.0
000100 70 6e 47 bf 0d a0 82 3e 0c 5b 26 bf 36 95 61 bf
       -0.7790289 0.25512734 -0.64982677 -0.881183
000110 dd ab 9a bf 4b 53 5c 3f 0b a4 91 3f e0 ac 65 3f
       -1.2083699 0.86064595 1.1378187 0.8971691
000120 ce 98 50 be ba f3 43 bf cd d6 4d bf 15 c8 30 bf
       -0.2037079 -0.7654377 -0.80405885 -0.690553
000130 28 35 07 bf 55 ba 9e bf 82 fc 68 3f 32 49 2c 3f
       -0.52815485 -1.2400614 0.91010296 0.6729919
000140 9c 93 94 bf 5d fb 10 3f fe 69 36 bf e8 fc a4 bd
       -1.1607547 0.5663355 -0.7125548 -0.080560505
000150 d4 ba 39 bf 38 f2 ce bd 28 fd 11 40 5e 53 36 bf
       -0.725507 -0.10104793 2.2810764 -0.7122096
000160 a1 4d c3 be 7c 5a 42 3f f4 7b 7e bf 44 73 46 bf
       -0.38145164 0.7591932 -0.9940789 -0.7751963
000170 db bb b5 be 03 98 e1 be 2f 0f 46 bf 12 41 9c 3f
       -0.35494885 -0.44061288 -0.7736692 1.2207358
000180 97 56 86 3f 76 ec f3 be 56 6b 2d 3e 42 50 63 3e
       1.0495175 -0.47641343 0.16935477 0.22198585
000190 92 02 e8 3f be c4 8a bf 37 bb 80 3f 78 30 15 3f
       1.8125784 -1.0841291 1.0057133 0.5827708
0001a0 88 68 d2 3f 73 59 3a 3c ab 29 74 be b6 57 cd be
       1.643815 0.011373865 -0.2384402 -0.4010598
0001b0 f1 e0 9e 3f 23 96 24 bf aa d5 dc bf 57 50 02 bf
       1.2412397 -0.6429159 -1.7252705 -0.5090384
0001c0 d7 6b f0 bf a4 ef 88 bf 45 ad 96 bc 10 3f 3e bf
       -1.878291 -1.0698133 -0.018393168 -0.74314976
0001d0 93 d5 81 bf 81 a6 49 bf d1 a5 8d 3f 5d 6f c7 3f
       -1.0143303 -0.7876969 1.1066228 1.558086
0001e0 23 63 49 3e d2 3c 8d bc ce 42 91 3f d5 8d b2 bf
       0.19666724 -0.017240915 1.1348512 -1.3949534
0001f0 c2 b5 d9 bd 4d 01 1e be 88 0e 17 bf 3f fb d2 3e
       -0.10630371 -0.15430184 -0.5900655 0.4120731
000200 8b 91 20 bf 06 8e 8f 3f 34 3b de be e5 5f 96 3f
       -0.6272208 1.1215217 -0.43404543 1.1748015
000210 93 3e ce bf 59 5e 20 bf d6 7d 14 be 61 f1 b6 3f
       -1.6112846 -0.62643963 -0.14501128 1.4292413
000220 de 5d 1a 3f 12 70 71 3f 38 db 5a 3e 3d 34 59 bf
       0.6029948 0.9431163 0.21372688 -0.84845334
000230 62 bd 65 be 51 a7 13 bf 46 a5 78 3e 7f 49 90 3c
       -0.22435525 -0.5767718 0.24281797 0.01761317
000240 8e b5 2b 3f e7 d8 be bf 68 fa 54 3f 9f 2e 8a 3f
       0.67073905 -1.4909943 0.8319459 1.0795478
000250 0a d3 a5 be 75 1f 46 3f cd b6 35 3f aa 36 b5 be
       -0.32387573 0.7739175 0.70982057 -0.35393268
000260 92 d7 9d 3f 64 80 f8 3e 4c cc 22 bd 42 4e c4 3e
       1.2331412 0.48535454 -0.039745614 0.38340956
000270 da 63 9f bd 23 c4 f3 3f 4e 37 55 be 6a e3 69 3e
       -0.07782717 1.9044231 -0.20821878 0.22840658
000280 3c fc 19 40 83 5f 93 3f 22 47 3f 3f b5 f0 77 3d
       2.4060202 1.1513523 0.74717915 0.06053229
000290 dd 13 ae bf 32 46 2b 3f c3 f5 f9 be 64 c3 4c 3f
       -1.3599812 0.66903985 -0.48820314 0.7998564
0002a0 b0 b8 b8 3d af bc 33 bf 56 c4 de 3d fc d7 be 3f
       0.09019601 -0.70209783 0.10877292 1.4909663
0002b0 64 ab 69 3b df 49 88 3e 47 cc 11 bf cc b8 3c 3f
       0.0035655135 0.2661886 -0.5695233 0.7371948
0002c0 4f 72 20 3f f6 d7 70 3f 5d f3 70 3f e2 4a 30 3d
       0.6267442 0.9407953 0.9412134 0.043040164
0002d0 63 31 61 bf 7b 1f a2 3f 4a a0 92 be 81 6f e1 be
       -0.87965983 1.2665857 -0.28637916 -0.44030383
0002e0 61 d1 19 3f dd ba bf 3f 61 52 aa 3e 62 38 85 be
       0.6008511 1.4978901 0.33265975 -0.2601958
0002f0 98 ea 02 3e 54 f5 73 3f 52 4e d5 be 0e 88 5a be
       0.12784803 0.95296216 -0.41661316 -0.21340963
000300 69 75 e2 3f 74 0c 54 bf 96 7c 30 3f 58 d9 4b 3e
       1.7692081 -0.828315 0.68940103 0.19907129
000310 5c ad c0 be 6b 6f bb 3f f8 60 23 be 65 fe 44 3f
       -0.37632263 1.4643377 -0.1595496 0.76950675
000320 31 e3 da 3e 9c 5f 40 3f 47 5e d5 be 3f 80 0a bf
       0.42751458 0.7514589 -0.4167349 -0.5410194
000330 72 c3 85 be 98 70 b3 3e a5 20 fc 3e 18 42 87 3f
       -0.26125675 0.3504684 0.49243656 1.0567045
000340 b4 84 96 3e 23 0b 06 3e 34 69 d6 3e d6 88 ad bf
       0.2939812 0.13090186 0.4187714 -1.3557384
000350 38 03 c2 bf bb ce fe bd 46 2a 3a 3f 64 16 4e bf
       -1.5157232 -0.124417745 0.72720754 -0.80502915
000360 80 03 e4 3e bc a6 11 3f 1a 31 a7 3e 4c 08 60 3f
       0.4453392 0.5689504 0.3265465 0.8751266
000370 d5 71 8e 3f 3d 20 46 3e 91 5c e6 bd 06 cc 9a bc
       1.1128489 0.19348235 -0.112481244 -0.018896114
000380 90 6e 47 3d 23 59 9f 3f 63 3b c7 bf ba 76 92 bf
       0.048689425 1.2449077 -1.5564998 -1.1442482
000390 04 92 91 be 4a 61 77 3e 9f 31 34 3e 41 4c 86 bf
       -0.28431714 0.24158207 0.17597054 -1.0492021
0003a0 e2 46 fb 3e 7f 31 39 3f 1d d3 47 be a0 45 c9 3d
       0.49077517 0.7234115 -0.19514127 0.09827733
0003b0 4b 8c 88 be 16 46 48 3d 9e 05 71 be 2a 64 e8 3d
       -0.26669535 0.048894964 -0.23537299 0.1134723
0003c0 46 2a 9b bf 1a 3a fa be 50 9b 3f 3e 52 9c f9 3d
       -1.2122276 -0.48872453 0.18711591 0.12188019
0003d0 5e cc 4c bf 9f 88 bb be b6 8d 69 bd 77 a9 35 bf
       -0.7999934 -0.3662767 -0.05701991 -0.7096171
0003e0 21 c2 25 bf 61 e5 23 bf 74 13 84 3e 3e 9b 2d 3f
       -0.6474934 -0.6402188 0.25796092 0.67815006
0003f0 eb f0 4c 3f b1 79 c0 3e cd c4 48 bf 81 ca a2 bf
       0.8005511 0.37592843 -0.78425294 -1.2718049

lstm.weight_ih_l0 f4 [256, 64]
000000 db e0 ae bd bd 79 86 3d 75 89 a4 bc 13 7d 93 3e
       -0.085389815 0.065661885 -0.020085076 0.28806362
000010 f0 e3 0d 3d e8 10 00 be 59 cc 5e bd 7c 25 11 3e
       0.034641206 -0.12506449 -0.0543941 0.14174455
000020 aa 2f 30 3d 95 fb 6d 3d 4f d3 7a 3c 87 0c 30 bc
       0.043014206 0.058101255 0.015309169 -0.010745174
000030 72 59 e0 bd 95 ca 63 3e 09 28 0a 3e 8a d8 ee bc
       -0.1095456 0.22245248 0.13491835 -0.029155988
000040 84 f1 9b bd 61 c0 5b 3e 44 7e e9 3d df 77 9a be
       -0.07614425 0.21460105 0.114010364 -0.3016958
000050 20 11 2c bd ab 35 39 3e 43 b4 af bd e0 d4 f8 bd
       -0.04200852 0.18086879 -0.08579304 -0.12149978
000060 8f 1f 12 3e c7 ba f2 3d 12 db 56 3c 8a b1 91 3e
       0.14269851 0.11852031 0.013113754 0.28455764
000070 f1 5d 1c 3d 85 3d 40 3e 94 f0 2a be ad 14 39 3e
       0.038175527 0.18773468 -0.16693336 0.18074293
000080 01 76 fa 3d 77 76 da bc 73 53 3e 3d 8e f5 08 3d
       0.12229539 -0.026667817 0.046466302 0.033437304
000090 aa 36 0c 3e 59 98 13 3e 87 fa a6 be cd 90 01 be
       0.13692728 0.14413585 -0.32613012 -0.12652893
0000a0 fd c9 e6 3c a4 0e d2 3a 2c 46 8e bd c7 7d 06 3e
       0.028172487 0.0016026092 -0.06946978 0.13133918
0000b0 29 a9 eb 3d a6 b3 4f be ad 5c 86 be 69 f0 99 3d
       0.11506874 -0.20283374 -0.2624258 0.07516558
0000c0 0e b8 c8 3d ca b0 04 be 2b 39 de bc ab be 2f 3b
       0.09800731 -0.12958065 -0.02712687 0.0026816528
0000d0 23 b8 20 3e 5b 25 c5 3d a1 c1 8b be 92 3f 2f 3d
       0.15695243 0.096262656 -0.27296165 0.042785235
0000e0 ef 32 fc 3d 4f bb 75 be 29 a0 f4 3d 80 ec 7d 3d
       0.12314402 -0.23997234 0.119446106 0.061993122
0000f0 15 a8 42 3e 3e b4 04 be be c5 8b 3e 8e 76 9b bd
       0.1900943 -0.12959382 0.27299303 -0.07590972
000100 7c d0 31 bd 26 ef 46 be 1c 94 70 3d 38 d8 03 bd
       -0.043411717 -0.19427165 0.058734998 -0.032188624
000110 27 1b 3f 3d c6 24 d7 bd 18 95 5b be ac 35 80 bc
       0.046656754 -0.10505061 -0.21443594 -0.015650593
000120 23 f8 95 3d a9 7b fb bd 12 f4 19 be 76 ec 87 bd
       0.07322719 -0.12279446 -0.15034512 -0.06636898
000130 ba 00 0c bd 90 7d 43 3d c0 d5 7d 3d fd 5a af bd
       -0.03418038 0.047727168 0.061971426 -0.085622765
000140 47 47 91 3c 21 2b 72 bc 6a a7 1f be a6 8d e2 3d
       0.017734183 -0.014780791 -0.15591207 0.110621735
000150 59 76 d4 bc 0f 2d 62 3c 0a d8 ae 3d d9 64 c3 bd
       -0.025935339 0.013804688 0.085373 -0.095407195
000160 09 75 a2 3d 15 6d 02 3e c2 a3 7f be 20 05 2e 3d
       0.07932479 0.12736924 -0.24964812 0.042485356
000170 b3 66 ac bd 7c fb 8e be 3b 81 34 bd a8 d9 e9 3d
       -0.08418026 -0.27926242 -0.044068556 0.11418468
000180 ba 4f aa bc 25 97 83 3d a0 8c 61 be d9 1c a5 be
       -0.02078997 0.06425313 -0.220263 -0.32248572
000190 24 3c bc bd 1d 9b a3 bd 31 e5 a9 bd 39 6e 88 3d
       -0.091911584 -0.0798857 -0.08295668 0.06661648
0001a0 52 26 90 bd 74 2f 04 3e 69 60 79 bd e4 a7 4b 3e
       -0.07038559 0.12908727 -0.06088296 0.19888264
0001b0 e1 a0 bd 3c f5 52 52 3e dd 06 8e 3c d2 ac 4c 3e
       0.023148002 0.20539458 0.017337257 0.199878
0001c0 4c ec 68 bd dc fc ac 3b 1a 0b b8 3d fd 98 28 3e
       -0.056865975 0.0052791666 0.089864925 0.1646461
0001d0 ed 6e 84 be 75 10 90 bd 59 40 14 be 4d 1d 46 3d
       -0.2586588 -0.07034389 -0.14477672 0.048367787
0001e0 84 4d 56 3e 74 6b 71 bd 12 da 7f 3e 1f 5b 2e bc
       0.20928007 -0.058940366 0.24985531 -0.010641842
0001f0 cb 88 ec 3d 4a a4 4c 3e ca f6 19 3c 5c 51 45 bd
       0.11549529 0.19984546 0.009397218 -0.048173293
000200 6b 57 6f bd 9e a9 75 3d 1d 92 98 be 13 df a8 bd
       -0.058432978 0.059976213 -0.29798976 -0.08245673
000210 84 66 64 bd d2 e4 fa bc 3d 72 06 3c 6f 52 d1 bc
       -0.05576183 -0.030626688 0.0082059475 -0.025552003
000220 97 e4 66 3d e3 b2 d1 bd 2b 4a 41 be 1d e4 4f bd
       0.056370344 -0.10239198 -0.18875949 -0.050754655
000230 c3 18 9c 3e 66 cb d4 bc 7e 5e 31 bd 4f c8 8a be
       0.30487642 -0.025975894 -0.043303005 -0.27105948
000240 29 c3 c4 3c 9f 3b 05 3e 24 c0 2a 3e 50 a0 95 bd
       0.02401884 0.13011025 0.16674858 -0.07305968
000250 2a 0f 7d bd 16 90 22 bc c9 3d 1b 3e 0b 9a 45 3d
       -0.06178204 -0.009922048 0.15160288 0.04824261
000260 0d 76 df 3c 11 b2 9a 3d 68 f7 f6 3c 82 00 be bd
       0.02727797 0.07553495 0.03014727 -0.092774406
000270 2c ee 24 bd fb 91 c0 bc 04 89 3f bc dd 21 a2 bd
       -0.0402662 -0.023507109 -0.011690382 -0.07916615
000280 15 1c 06 3e e0 58 34 bb d2 88 a2 bd 75 f5 2c be
       0.1309665 -0.0027518794 -0.07936253 -0.1689051
000290 f0 0c 71 bd f7 f4 37 be e3 2e 0f bd a7 bd c6 bd
       -0.05885023 -0.1796454 -0.034956824 -0.09704142
0002a0 c2 f9 d9 bd ad e6 f4 39 0c 08 b8 be e9 af 36 3e
       -0.10643341 0.00046711173 -0.3594364 0.17840542
0002b0 4b 86 e1 bd 84 5b ce bd 27 8d 03 3e 96 93 95 bd
       -0.110119425 -0.10076049 0.12846814 -0.073035404
0002c0 27 d5 b7 bd 6b 5a 90 3d d2 ba 91 bd 68 cd fb 3c
       -0.089762025 0.07048496 -0.07115711 0.030737594
0002d0 29 ef 0a 3e 65 15 7b bd ba 84 4e be 54 57 ba bd
       0.13567795 -0.0612997 -0.20167819 -0.09098688
0002e0 2b 8d 50 bd 58 5e 5f 3d 6e 7b ca 3d 9b 6c 83 bd
       -0.05091588 0.054533333 0.098868236 -0.06417199
0002f0 3d 0b 24 bc 82 e2 88 3d da e0 9a bd 50 2a b4 bd
       -0.010012445 0.06683828 -0.07562418 -0.08797133
000300 f0 c2 0c be d9 73 04 3d 77 d5 2b 3e 71 e3 a6 bc
       -0.13746238 0.032337043 0.16780649 -0.020372124
000310 e3 05 a6 3d e9 58 72 3d ba 32 f2 3d 4b 47 01 be
       0.081065916 0.059166823 0.118260816 -0.12624852
000320 f2 92 e7 3c 5d aa b8 bd af 6a 58 3c 53 a8 a7 3d
       0.028268311 -0.09016869 0.013209029 0.08186402
000330 62 01 ad bd 55 f4 a5 3d f9 8b 2d bd 7c f0 16 be
       -0.084475294 0.08103243 -0.042369816 -0.14740175
000340 a7 fa 1b 3e a6 88 10 bd df 1b 4f 3c e1 47 99 3d
       0.15232335 -0.035286568 0.012640922 0.07484413
000350 f4 08 82 3d d3 2d bf 3d 39 e2 ba 3c b1 d4 5c be
       0.06349364 0.09334912 0.02281295 -0.2156551
000360 c5 ac 84 3c 62 45 5f 3e c8 78 13 bd 99 01 6f bd
       0.016195664 0.21803811 -0.036003858 -0.058351133
000370 3a 7f 27 be 93 67 92 3d 40 48 7d bd e4 99 c2 bd
       -0.16357127 0.071486615 -0.06183648 -0.095020086
000380 a8 4c 41 3e c2 92 d0 3d ab f7 30 3e e0 86 bc bd
       0.18876898 0.10184242 0.17281978 -0.09205413
000390 8d 63 1d be 30 d5 9e bd 8e 6c f4 bb e3 b5 f6 bd
       -0.15370007 -0.07755506 -0.00745923 -0.12046411
0003a0 3f 66 ce 3d a9 43 6a 3e e0 da bd bd 44 82 c8 3d
       0.10078096 0.22877373 -0.09270263 0.09790471
0003b0 a9 dc 0f bd fd 8f 8b be a6 2b a2 bd 03 cd 00 3d
       -0.035122547 -0.27258292 -0.079184815 0.031445514
0003c0 9a c9 98 bc b0 1d 34 3e ad 42 00 be 4c f7 ae 3d
       -0.018650819 0.1758945 -0.12525435 0.08543262
0003d0 0a 8b 41 3d 4c 9b 82 bd b0 cf 2e be 2a 49 e0 3c
       0.04725174 -0.06377277 -0.17071414 0.027378637
0003e0 3c 97 d5 3d ae cb f9 3d 36 ff 5d be 35 36 eb bd
       0.10429236 0.12197052 -0.21679386 -0.114849485
0003f0 bb dd 61 3d 44 98 bc bd 98 51 93 3b ee 15 d4 bd
       0.0551431 -0.0920873 0.0044958107 -0.10355745

lstm.weight_hh_l0 f4 [256, 64]
000000 7b b3 91 3e 85 66 38 3d 7d 89 4c be b6 b2 53 3d
       0.28457245 0.045019645 -0.19974323 0.051684104
000010 06 6e 95 bd ba f0 09 3d bd 7f e3 bd 8b ae 11 3e
       -0.07296376 0.03367684 -0.111083485 0.14226739
000020 4c a5 9c 3c 53 0f 2a be 40 a9 bc 3c 5e 27 4a be
       0.019121788 -0.16607408 0.023029923 -0.1974158
000030 fb 36 3a be cc b4 18 3d 8d 68 04 3e ca 10 0e be
       -0.18185036 0.037281796 0.12930508 -0.13873592
000040 57 70 c2 bc 66 09 d4 3d a9 36 a8 3d b5 ae 42 3d
       -0.023735208 0.10353355 0.082135506 0.047529895
000050 85 79 04 3e 88 78 c9 3b 3a 1a 4e 3d 13 00 ad 3d
       0.12936981 0.0061484016 0.05031798 0.0844728
000060 c9 60 3d be 02 15 33 be b9 7b 03 be 94 ec 53 3c
       -0.18493952 -0.17488483 -0.12840165 0.012934823
000070 7a 08 3b 3c 24 17 96 bc a8 b0 57 bd eb 05 b0 3c
       0.011415595 -0.018321581 -0.052658707 0.021487197
000080 20 a1 16 3d 54 91 fa bc 79 35 f0 3d a5 63 6b 3b
       0.036774755 -0.030586876 0.11728949 0.0035917547
000090 be 62 06 be 4e 32 2b bd 1f ec ae bd 69 92 ea bd
       -0.13123605 -0.04179602 -0.0854113 -0.11453707
0000a0 5a 12 01 3e a1 4d 2e 3d c4 3a 7c bc a6 2e 19 3e
       0.12604657 0.0425545 -0.01539487 0.14959201
0000b0 32 f7 4f be 0e 13 c4 3d 33 13 32 be 1d 2a 3c bd
       -0.20309141 0.09573947 -0.17390136 -0.0459386
0000c0 1c e4 85 bd 31 82 dc bd 91 60 15 3c 98 ce fc 3d
       -0.06537649 -0.107670195 0.0091172615 0.12344092
0000d0 23 e7 00 be 64 ea 15 3e fd 78 a6 3d 20 e5 d9 bc
       -0.12588172 0.14640194 0.081285454 -0.026598513
0000e0 58 ae 41 3d f7 cf f3 3d fe 9d 9a 3d cb 72 7c bd
       0.047285408 0.119049005 0.07549666 -0.061632913
0000f0 be cf 0c be e8 7d 8a 3e 91 e3 9e 3c 2f f3 4a 3d
       -0.13751122 0.27049184 0.019395621 0.049548324
000100 56 f8 bd 3d c3 e9 92 3d 32 d4 ba bd ff a7 56 be
       0.09275882 0.07173493 -0.09122504 -0.20962523
000110 4b 68 a1 bc 63 ce 14 3c 4d 2c bc 3c f3 b2 9e bd
       -0.019703051 0.00908241 0.022970343 -0.077489756
000120 1a e5 43 be 8d 03 84 be bc c1 b1 bc 2c ad 12 bd
       -0.19130364 -0.2578396 -0.021698825 -0.03580968
000130 e8 c2 a4 bd f0 0b 9f 3d f1 7a 5e 3e c4 34 0e 3c
       -0.08044988 0.07765949 0.21726586 0.0086795725
000140 b8 1c 80 bc 6f 1e 2b bd f5 f8 c9 3c 2c 07 d6 3d
       -0.015638694 -0.04177707 0.024654845 0.10450587
000150 86 bd 64 be d5 c1 43 be 85 e3 e6 bd 9a 5a db bd
       -0.22337922 -0.1911691 -0.11273865 -0.1071064
000160 65 98 b8 3d 4d 91 0e bd 11 bc 56 3d b1 0c 10 3e
       0.09013442 -0.03480654 0.052425448 0.14067341
000170 b6 61 55 3e 0b 63 42 3d d2 1e 33 be d4 8d 45 bd
       0.20838055 0.047457736 -0.17492226 -0.04823096
000180 64 25 84 3d 27 60 14 3d 96 ef 95 be 58 c0 24 bc
       0.06452444 0.03622451 -0.29284352 -0.010055624
000190 11 d1 93 3e bb 0d 95 bd 1a 3b 07 bc 10 55 b3 bd
       0.28870443 -0.072780095 -0.008253837 -0.08756459
0001a0 16 8a bd bd b5 2a b5 3d 27 41 92 bd c2 0a 01 3d
       -0.092548534 0.08846036 -0.07141333 0.0315044
0001b0 68 76 82 3d 96 f1 81 bd c1 33 77 39 55 ab 0a 3e
       0.063702404 -0.06344907 0.00023575035 0.1354192
0001c0 7e 1a 94 3d 6a e6 51 3e f8 df 2e 3e b7 47 a5 3d
       0.072316155 0.20498052 0.17077625 0.08070319
0001d0 97 89 4e 3d c2 27 49 bd aa b0 b5 3c ea 58 eb 3d
       0.050424185 -0.04911018 0.022178967 0.114915684
0001e0 86 75 18 bc ac 7f e1 bc 22 0d 0b 3e 35 04 13 3d
       -0.0093053635 -0.027526699 0.13579229 0.035892684
0001f0 7d 54 f7 bd 7b f8 c1 bd 73 a3 06 3a 68 83 fd bc
       -0.12076662 -0.09471222 0.000513605 -0.030946448
000200 6c 2d 14 3e 55 cb b6 3d 10 20 84 be 1b 58 09 be
       0.14470452 0.08925501 -0.25805712 -0.13412516
000210 8b 8a e9 bc 17 04 fb 3d 0e 9b 2e be 72 e7 94 3e
       -0.028508445 0.122566395 -0.17051336 0.2908283
000220 01 96 0c be 3e 6d 9e bd 10 c1 b2 3d c4 e9 bc 3c
       -0.13729097 -0.0773568 0.0872823 0.023060687
000230 45 57 77 3d da 1a 58 bd a2 6d 50 3c cc cf 74 3c
       0.06038596 -0.052759983 0.012721451 0.014942121
000240 d6 17 42 bd 3f 35 b8 3d 50 25 86 be 0b f3 12 3d
       -0.047386013 0.08994531 -0.26200342 0.035876315
000250 f6 81 b2 bc 95 ca b1 3b 88 9a 5e be 7d f9 35 bd
       -0.021790486 0.005425761 -0.21738636 -0.044427384
000260 2a d3 c9 3d 27 71 08 3e 61 1f e9 3d 3d c7 c2 3b
       0.098547295 0.13324414 0.11382938 0.005944161
000270 28 01 21 be 04 fe d0 3d 80 e2 95 bc 52 c6 17 bd
       -0.15723097 0.102047 -0.01829648 -0.037054367
000280 8d b9 e8 bd 4b f4 1f 3e 2f 1a ae 3c 8e ae 2a 3e
       -0.11363516 0.15620534 0.02125272 0.1666815
000290 f8 c9 11 be a9 33 11 3e e6 80 4b 3d cb 38 b0 bd
       -0.14237201 0.14179863 0.049683474 -0.086045824
0002a0 c3 3d 6b be d1 10 c3 bd 04 6d ef 3d e8 68 e2 bd
       -0.22972779 -0.09524692 0.11690715 -0.110551655
0002b0 d7 a1 89 be 14 8c 6d be aa b0 1a be 04 94 ca bc
       -0.26881287 -0.23197967 -0.15106454 -0.024728782
0002c0 89 30 fa bd b6 ca 17 be f0 82 7f 3c a0 2d 1c 39
       -0.122162886 -0.14823422 0.015595183 0.00014894316
0002d0 e7 01 dd 3b 24 fe e0 bd e3 27 06 3c ec 14 7a bd
       0.0067446115 -0.109859735 0.008188221 -0.06105511
0002e0 fb 1a 71 bd a7 23 00 bd 4c 06 57 3d 7e 87 c5 bc
       -0.05886362 -0.031284 0.05249624 -0.02411246
0002f0 88 0b 1c be b3 b0 3d bc 6e ca 29 3e 88 10 e2 3d
       -0.15238774 -0.011577773 0.16581127 0.11038309
000300 c2 41 ba bd 5e e5 de bc 05 62 5c 3d 5a 15 b3 bd
       -0.090945736 -0.02720898 0.053804416 -0.08744307
000310 d9 5c 5d 3d 55 ec ad 3d db 15 af bd ce ef 5c 3e
       0.054043625 0.084923424 -0.085490905 0.21575853
000320 c8 80 27 3e d2 1e dc bc 6c c6 a7 bd 36 84 48 be
       0.1635772 -0.026870165 -0.08192143 -0.19581684
000330 93 61 1f be bb fe 45 bd a9 bd a1 3d 88 ea 86 bd
       -0.15564565 -0.048338633 0.07897503 -0.06587702
000340 9c 1f 31 be 6d 1a 99 3d 5a 27 98 bd eb 3c 64 be
       -0.17297214 0.074757434 -0.07429381 -0.22288863
000350 18 52 7a 3d f3 66 08 3d b3 0b 0f bd 0b bd 98 bd
       0.061113447 0.033301305 -0.034923267 -0.07457932
000360 38 fa 9b bd 66 d5 df 3d 0c 6b cc bd c7 48 44 bd
       -0.07616085 0.109293744 -0.09981355 -0.04792097
000370 3a 0b 76 3c ef 3d 1e bd 11 a3 4a bd 18 c1 15 3e
       0.015017325 -0.038633283 -0.04947192 0.1462444
000380 ae f6 cc 3d 2f b0 db bd 2b 67 0d 3e a5 7a 13 bd
       0.10007988 -0.10726964 0.13808887 -0.036005635
000390 e1 66 9d bd 66 39 e3 3c b6 83 a3 3d 54 c5 eb bd
       -0.07685638 0.02773733 0.07984106 -0.11512247
0003a0 a9 68 20 3e ee 50 ec bd a7 7a d2 bd 93 e9 3d 3d
       0.15664925 -0.115388736 -0.102773 0.04636533
0003b0 45 bf 6b be 60 48 b3 3d d0 5c b0 bc 4c bc 4d 3d
       -0.23022182 0.08754039 -0.021528631 0.050228402
0003c0 ca ec e3 bc de f7 db 3c 07 7a d6 3c 23 90 bb bd
       -0.02782287 0.02685159 0.026181234 -0.09158351
0003d0 28 0a 08 be 33 50 28 3e ca 03 c4 bd 3c 0d 0b 3e
       -0.13285124 0.16436844 -0.09571035 0.13579267
0003e0 1d fa 33 bc 21 13 dc bc c2 2b 93 3d 59 e1 c7 bd
       -0.010984925 -0.02686459 0.071860805 -0.097597785
0003f0 4f f3 ce bd 6d 5a 89 bd 00 98 bb bd 14 fb af bd
       -0.10105001 -0.067067005 -0.09159851 -0.08592811

lstm.bias_ih_l0 f4 [256]
000000 33 61 24 3e de 0b fc 3c e9 85 ef 3a b9 47 c5 3c
       0.16052704 0.030767377 0.0018274161 0.024082052
000010 18 01 8f 3c 1e ce c7 bb 1f 1d f6 3d d5 a8 20 3e
       0.017456576 -0.006097569 0.12017273 0.15689404
000020 e1 47 d0 3d 8c 53 2a be 7d e4 cf 3d 72 51 53 3e
       0.1016996 -0.16633433 0.101510026 0.20636538
000030 d2 dc fb 3c 9d 9f 0b bd c6 2d e7 3d a8 6b 53 3e
       0.030744944 -0.034087766 0.112880275 0.20646536
000040 6f 80 8f 3e 06 fc 67 3e 2c 34 aa 3d 63 d6 cf 3d
       0.28027675 0.22654733 0.08310732 0.10148313
000050 3a 75 9d 3c 84 68 c7 3d 01 fa 83 3d e9 5d d3 3d
       0.019220937 0.09736732 0.06444169 0.10320646
000060 35 5a 43 3e 68 e5 0e bd 85 74 17 3e 9a 32 03 3d
       0.1907738 -0.034886748 0.14790542 0.03203068
000070 69 ef 31 3d a1 26 5c 3e 50 4e 16 3e 9b c3 0e 3e
       0.04344121 0.21499111 0.14678311 0.13941805
000080 91 c8 65 bc da 27 86 3d 88 77 a4 3e fd 15 0a 3d
       -0.01402487 0.0655057 0.32122445 0.033712376
000090 e3 fe f9 3d ea a9 43 3e 80 cd 6b 3e 0c f0 8e 3e
       0.12206819 0.19107786 0.23027611 0.27917516
0000a0 88 12 df 3d d5 10 b4 3e 72 b9 5e bc a3 fb 71 3e
       0.108922064 0.35169092 -0.013594018 0.23631148
0000b0 46 7b 17 3e 60 83 98 3d a7 d6 1c 3e 8d 88 42 3e
       0.14793119 0.07446933 0.15316258 0.18997402
0000c0 d7 0f 05 3e 13 46 e7 3c df 7b f0 3d 44 d2 b3 3d
       0.12994324 0.028231656 0.117423765 0.08780339
0000d0 c4 3e a6 3d 09 83 ab 3d 7a b4 47 3c 94 b9 61 3e
       0.0811744 0.08374602 0.012189025 0.22043449
0000e0 4a 91 58 3e 6c c1 20 3e d9 83 f1 3d 48 96 d4 3d
       0.21149173 0.15698785 0.11792726 0.103802264
0000f0 8f 54 07 3e dd 78 85 3e 3a da 97 3e b8 92 53 3e
       0.1321585 0.26068774 0.2965868 0.20661438
000100 ff 59 1c bc e0 cb 78 3d a0 b1 9a 3d fb e3 b0 3c
       -0.009542941 0.060741305 0.075534105 0.021593085
000110 72 5e 36 3e 98 90 89 3c b8 df c7 3c de af e2 3d
       0.17809466 0.01679258 0.02439867 0.110687
000120 e5 13 08 3e ff 22 1b 3e 48 ee 17 3e 93 03 85 bc
       0.13288839 0.15150069 0.14836991 -0.016237056
000130 11 9c 20 3e 12 46 4a 3e 11 7c 23 3e 1a 27 35 3c
       0.15684535 0.19753292 0.15965296 0.011056686
000140 8c b5 85 3d 6c 9f 09 3e fd b8 10 3e de c5 9c 3d
       0.06528768 0.13439721 0.14133067 0.07654928
000150 b5 82 96 3d 01 80 9a bb 42 b8 23 bb ff be 18 bc
       0.07349149 -0.0047149663 -0.0024981652 -0.009322881
000160 f3 eb 07 bc 95 50 00 3e b3 97 37 3c f0 b2 59 3d
       -0.008296001 0.1253074 0.0112056015 0.053149164
000170 7d 15 0b 3d 1f f5 4c 3d ba d5 0a 3e 00 07 f1 3d
       0.03395604 0.050038453 0.13558093 0.11768913
000180 15 2f 9e bd 01 3a ab bc 61 4c 32 bd ed d2 b1 bd
       -0.07723824 -0.020901682 -0.04352987 -0.08682809
000190 8e d3 bd 3c 80 38 f9 3c ab ff 17 3e ed 95 dd 3d
       0.023172166 0.03042245 0.14843623 0.10819612
0001a0 38 ab 18 3e d1 ea 82 3c e6 51 cb 3c f4 93 21 3d
       0.14909065 0.01598111 0.024819326 0.03944774
0001b0 92 2a 3f 3c db 0d 8a 3d f4 8a 32 bc 7c d0 a2 bc
       0.011667864 0.06740924 -0.010897387 -0.019874804
0001c0 a4 9a 40 bd 24 fd af 3d ae 2c 7f bd c7 d7 77 3d
       -0.047022477 0.085932046 -0.06229847 0.060508516
0001d0 54 14 c4 3d 15 af 20 3e 18 c9 13 bc e1 34 10 3c
       0.0957419 0.15691788 -0.009020112 0.00880167
0001e0 5f bc 5f 3e 2f c5 73 3d de d7 0a bd b3 e1 33 3d
       0.21849202 0.05951422 -0.033897273 0.043916415
0001f0 21 41 a9 3d a9 1a e0 3d a1 28 95 3c a0 b0 e9 3d
       0.082643755 0.10942585 0.01820785 0.11410642
000200 46 15 13 be c7 fa 1f bb 3d c1 9d bd 03 e1 aa 3d
       -0.14363584 -0.002441095 -0.07702873 0.08343699
000210 2d 6a b7 3c 61 45 11 bc 45 e6 42 3d 8f 85 c5 3d
       0.022389496 -0.008866639 0.047582883 0.09644615
000220 b0 b6 15 3d 96 00 10 bd af 6e fe 3d 62 56 25 be
       0.036551178 -0.03515681 0.12423455 -0.16146234
000230 1a ed af bd d1 ef 32 3d 68 05 34 3d 33 f3 40 be
       -0.085901454 0.043685738 0.04395047 -0.18842773
000240 26 92 27 3d 63 38 75 3d 61 39 0b bc ad 84 cc bd
       0.040910862 0.059868228 -0.008497567 -0.099862434
000250 28 d8 90 3d 21 d3 88 3d 76 e2 79 bd a3 9a 68 3c
       0.070724785 0.06680895 -0.061006986 0.0141970245
000260 04 11 ac be c6 91 a6 3d 71 09 de bd 7a cd 1b bd
       -0.33606732 0.08133273 -0.108416446 -0.038037755
000270 0b 2e 03 bd 60 f5 df bd e0 4e 90 bc 14 48 0d bd
       -0.032026332 -0.109354734 -0.017615736 -0.034492567
000280 19 02 fc bc 98 20 b3 3d 08 12 ac 3d 1a f5 9d 3d
       -0.030762719 0.08746451 0.08401877 0.07712765
000290 fc 7e eb bd ea 80 93 bb 22 6c 23 3e 65 95 91 bd
       -0.1149883 -0.0045014517 0.15959218 -0.07108573
0002a0 4b 6e c8 bd 20 af dd bc a0 ee cf 3c 09 eb 57 bd
       -0.09786662 -0.027061045 0.02538234 -0.05271438
0002b0 e0 ec c2 3d 39 aa 4e bd ed de ad bc 97 a1 32 bd
       0.095178366 -0.050455306 -0.021224463 -0.043611135
0002c0 7c f1 8c 3d 12 69 20 3e 64 78 31 3e a3 a5 8b bd
       0.06881997 0.15665081 0.17331082 -0.06818702
0002d0 61 8b 26 bd 78 cf a7 3d b3 08 50 3d 24 54 a3 3c
       -0.040660266 0.081938684 0.050789546 0.019937582
0002e0 4b 23 87 3d b8 f9 85 be a0 39 ed 3d 66 c1 15 bd
       0.065985285 -0.26167083 0.11583257 -0.036561392
0002f0 d9 c8 44 bd 33 4d 59 3e 8c 13 d4 3c c6 16 de 3d
       -0.048043106 0.21220855 0.025888227 0.108441874
000300 af 83 8b 3e e1 51 d8 3d 6f a8 bb bc 98 d9 00 3e
       0.27248904 0.10562492 -0.022907464 0.12583005
000310 1c ac c3 bc f4 cb 68 3e 26 0c 72 3d be 45 07 3e
       -0.02388578 0.22734052 0.059093617 0.13210198
000320 79 28 da 3d db c4 72 bd 4b 20 ef 3d c7 56 01 3e
       0.10652251 -0.059269767 0.11676081 0.12630759
000330 2f cc 81 3d 00 1e 67 bd 41 5d e6 3d ac a9 cd 3d
       0.06337773 -0.056425095 0.112482555 0.10042128
000340 1d b4 f3 3c 3f b1 d7 3d 84 66 4b 3e a4 1d e3 3d
       0.02974897 0.10531854 0.19863325 0.11089638
000350 d4 06 16 3e fa 24 7c 3e 15 97 d7 3d 3c 91 80 3e
       0.14651042 0.2462348 0.105268635 0.25110805
000360 7c 2f 89 3d cf 6f 03 3e 3d 1d 8b 3e 55 e0 33 3e
       0.0669851 0.1283562 0.27170745 0.17566045
000370 06 f5 ab 3b b8 34 9e 3e f2 19 66 3d bf 8f 9d 3e
       0.005247715 0.30899596 0.056177087 0.30773732
000380 30 81 eb 3d 4e 11 85 3e 11 78 8f 3e 5c 6c 83 3d
       0.1149925 0.25989765 0.2802129 0.06417152
000390 26 96 cc 3d bf 3a 5b 3e 7d 37 e6 3d 0d db 9c 3d
       0.09989576 0.21409129 0.11241052 0.07658968
0003a0 4f be c1 3d 21 2e 2d 3e c2 bb cc bc 51 ec 5a 3e
       0.094601266 0.16912128 -0.024991874 0.2137921
0003b0 71 9c 7a 3d d1 e0 0b 3e 66 a0 3d bc a6 a1 02 3e
       0.06118435 0.1365998 -0.0115738865 0.12756976
0003c0 39 61 f7 3d 7e de 58 3e 0d d3 59 3e d8 6b 30 3d
       0.120790906 0.21178624 0.21271916 0.043071598
0003d0 04 6a 78 3d ed 7a 01 be 95 cf ec 3d 69 31 8a 3e
       0.06064798 -0.12644549 0.11563031 0.26990822
0003e0 7d 71 2a 3d 51 46 6c 3e 56 88 26 bc 1d 2c 36 3e
       0.041612137 0.23073699 -0.010164341 0.17790265
0003f0 82 57 e2 3a aa 00 b6 3e 80 57 ad 3e 28 0e fe 3d
       0.0017268511 0.35547382 0.3385582 0.12405044

lstm.bias_hh_l0 f4 [256]
000000 30 7d 81 3e 2f e9 85 3d 31 65 8a 3d 6e ac 2c bd
       0.25290823 0.06538617 0.06757582 -0.04215663
000010 4a aa 03 3e 0a 2c 0f 3e ec d4 d7 bc 99 49 09 bd
       0.12857929 0.13981643 -0.026346646 -0.033517454
000020 aa db 9d 3e 92 73 0c be 26 96 8b 3e 41 b0 37 3d
       0.30831653 -0.13715962 0.27262992 0.044845823
000030 94 81 86 3d 80 1f 8b 3d a9 bb da 3d 16 9c c2 3d
       0.06567684 0.067931175 0.106803246 0.09502427
000040 3a eb 40 3e 53 42 58 3e 9f f6 f6 3c fb c0 f3 bc
       0.18839732 0.2111905 0.030146895 -0.029755106
000050 8c 5d ae 3d 5d 1f 92 3e 47 de 3b 3d 8d 11 a1 3e
       0.085139364 0.28539553 0.045866277 0.31458703
000060 60 67 6d 3e cd 3b de 3d 59 57 43 3e 39 2a 0b 3d
       0.23183966 0.1085125 0.19076289 0.033975814
000070 46 e1 10 bd 8c 93 9e 3e f6 57 59 3e 5a e3 89 3e
       -0.035371087 0.30971944 0.2122496 0.26931268
000080 66 9e b6 3d 91 45 02 3e e8 52 90 3e d4 30 5d bc
       0.08916931 0.1272185 0.28188252 -0.013500411
000090 bc 09 30 3e 36 53 5c 3e ba 20 61 3e 42 ad 80 3e
       0.17191213 0.21516117 0.2198514 0.25132185
0000a0 8e 14 8b 3e 02 13 b5 3e 41 00 7d bc 58 3e 5a 3e
       0.2716412 0.35366064 -0.015441955 0.21312845
0000b0 3d fe 21 3e 04 6c 3c 3d 01 19 da 3d a6 cb b4 3d
       0.1581964 0.04600145 0.106493 0.08827905
0000c0 f4 be 76 3e bb b6 af 3d 8e 4e 71 3e ea 02 8b 3d
       0.2409628 0.08579775 0.23565122 0.06787665
0000d0 1c 3d 04 3e 7f 3d be bd 2e 96 b5 3d c6 da 05 3b
       0.12913936 -0.09289073 0.08866535 0.0020424589
0000e0 39 a8 4c 3e f8 ee 4e 3e ec 52 90 3d 13 a4 91 3e
       0.19986047 0.20208347 0.07047066 0.2844549
0000f0 ce ea be 3b ea 01 59 3e 2b a5 62 3e 1f 2a ad 3e
       0.0058263307 0.21192136 0.22133319 0.33821198
000100 77 34 e9 3d 69 ba b9 bd 89 66 9c 3d 77 c4 dd 3d
       0.1138696 -0.09068758 0.076367445 0.10828488
000110 23 ef 87 3d 36 31 c5 3c 40 1a 00 3e 7c e8 03 3e
       0.066374086 0.024071317 0.12510014 0.12881655
000120 36 64 1b bc e6 3c d7 bc f5 29 3d 3e f7 b5 29 3e
       -0.009484341 -0.026274156 0.18473037 0.1657332
000130 41 35 08 3d ba 3b 28 3e a0 43 f3 3d 13 af 1f 3e
       0.033253912 0.16429034 0.11878133 0.1559413
000140 dd 21 9e 3b 1a 16 04 3d 26 70 3e 3c 7e 78 57 3d
       0.004825814 0.03224764 0.011623418 0.052605145
000150 59 e5 2b 3d 4a c9 2a 3e 95 0a 14 3e 7a 98 03 3e
       0.04196677 0.16678348 0.14457162 0.12851134
000160 2c 0d 4f 3e 3a 5f 53 bc a4 63 41 3e 40 f1 2f 3e
       0.20219868 -0.012901122 0.18885666 0.17181873
000170 a5 c3 74 ba e9 0f f2 3d 46 11 c3 3d d0 b1 29 3b
       -0.00093370146 0.11819441 0.09524779 0.0025893338
000180 1d 6b 09 3e 35 26 c3 3c 48 f0 e0 3c 86 58 83 bd
       0.13419767 0.02382193 0.027458325 -0.06413369
000190 42 16 bc 3d 8e 66 40 3e b1 07 34 bd f6 43 b4 3c
       0.09183933 0.18789122 -0.043952648 0.022005063
0001a0 b1 d7 a3 bd 22 91 03 3e e7 92 84 3c 2c c8 40 bd
       -0.08000124 0.12848333 0.01618333 -0.0470659
0001b0 df b2 5e 3d d4 b6 8b 3d 49 1b c2 3d 15 48 fa 3d
       0.054369804 0.06821981 0.094778605 0.1222078
0001c0 f4 22 8a 3c 88 c5 92 3d ce bd b9 3d 4b 3f e0 3d
       0.01686237 0.07166582 0.090694055 0.10949572
0001d0 d9 02 75 3d 76 57 d3 3d d8 55 24 3e 91 65 4b bd
       0.05981717 0.10319416 0.16048372 -0.04965741
0001e0 3a 54 06 3d 61 75 81 bb 2d da 09 3e f2 60 dc 3d
       0.03279517 -0.0039507602 0.13462134 0.10760678
0001f0 53 36 30 3d c2 1a b8 3d e9 a9 58 3e 6c 13 61 3d
       0.043020558 0.08989479 0.21158566 0.054950163
000200 48 99 cd bd 25 f5 d8 3c a3 65 60 3d 77 ee 3a bd
       -0.10039002 0.026484082 0.05478443 -0.045637574
000210 47 29 ca 3d db db 19 be 30 f8 34 3d 7c da 20 3d
       0.09871154 -0.15025274 0.044182003 0.039270863
000220 07 9e ee bd f5 f3 3d bd a8 8a c6 3d b5 76 f3 bd
       -0.11651235 -0.046375234 0.09694415 -0.11887876
000230 0c ca d2 3c a5 27 8a 3d 2a 5c 6b bc 89 d1 10 be
       0.02573111 0.06745843 -0.014365235 -0.14142431
000240 f1 2e 2e 3d a2 7e 6f 3e 64 57 8e 3d 71 48 af bc
       0.042525236 0.2338815 0.06950262 -0.021396847
000250 d6 d2 8f bd 5d 00 fd 3d 41 76 da bd 55 4c 7c bd
       -0.07022636 0.12353585 -0.106670864 -0.061596233
000260 df b4 97 be bf 48 a1 bd 67 b2 45 be 91 fd 27 3e
       -0.2963018 -0.07875203 -0.19306336 0.16405322
000270 0e 5e 08 3d d0 13 44 be 8c b6 95 3c 59 20 1a be
       0.033292823 -0.19148183 0.018275522 -0.15051402
000280 35 9e 15 3e c8 76 3e bc 44 e5 aa 3d 2c 37 01 3e
       0.14611132 -0.011624999 0.0834451 0.12618703
000290 f5 8d 1c be 60 09 3d bd d1 52 85 3d 7c 3f bc 3c
       -0.15288527 -0.04615152 0.065099366 0.02297949
0002a0 0c 68 89 bd 67 20 b0 bd 90 6b e9 bc 13 23 ab 3d
       -0.067092985 -0.0859993 -0.028493673 0.08356299
0002b0 8d 3b e9 3d 5b 0b c3 bd 9e c0 84 bd 09 1b 81 bd
       0.113883115 -0.0952365 -0.06482051 -0.06303985
0002c0 2f 43 1c 3e d5 27 92 ba 8f 3f 36 3e c3 f8 2d 3d
       0.15260004 -0.0011150787 0.17797683 0.042473566
0002d0 61 0d 97 bc eb a9 7a 3d e5 6b e3 bd e9 cd 4a be
       -0.018438997 0.061197203 -0.111045636 -0.19805111
0002e0 08 e9 45 3d 8e 30 6b be 9b 34 3c 3e ad 2b ce bd
       0.04831794 -0.22967741 0.18379442 -0.10066924
0002f0 e1 a6 f0 3c fb 8e 48 3e 97 92 06 be 1d 16 76 bc
       0.029376449 0.19585793 -0.13141857 -0.015019921
000300 8b 39 ad 3e af 24 77 3d 4e 4c 00 3d 13 23 ae 3d
       0.33832964 0.06033772 0.03132277 0.085027836
000310 7f 92 9c 3d 10 7c b6 3c 33 48 bd 3d 65 30 f1 3d
       0.076451294 0.022275954 0.092422865 0.11776809
000320 93 10 40 3e 03 9c 38 bd b1 96 83 3e 57 8a 76 3e
       0.18756323 -0.04507066 0.25700906 0.2407621
000330 b6 f1 18 3e 4e 7a f0 3d 80 82 38 3e 73 5d 4d 3e
       0.14935955 0.11742078 0.18018532 0.2005518
000340 75 e5 ca 3d d9 1f 58 3e 9c e2 38 3e b3 81 bf bc
       0.09907047 0.21105899 0.18055195 -0.023377275
000350 f9 39 d1 3d c8 da 13 3e 6c 79 26 3e 88 41 31 3e
       0.102161355 0.14438927 0.16257256 0.17310154
000360 c0 b0 31 3e 72 73 12 bd 3c 6c 42 3e f8 40 62 3e
       0.17352581 -0.03575463 0.189866 0.22095096
000370 fd 2b 6a 3e f7 14 90 3e ea 3b ca 3d fd a0 a4 3e
       0.22868343 0.28140995 0.09874709 0.32154074
000380 1e a5 7f 3d ad 9a 31 3e 51 8c 0c 3e 6e 03 3e 3b
       0.062413327 0.1734416 0.13725401 0.0028993743
000390 a6 6f c0 3d 40 38 8f 3e c0 9a 5f 3e a7 ff be 3d
       0.09396295 0.27972603 0.21836376 0.093261056
0003a0 db 12 ab 3e ba 82 7d 3e a7 e0 46 3d 6c 5e 75 3e
       0.33412823 0.247569 0.04855409 0.239618
0003b0 b3 c0 78 3c ed ed 78 bd a1 e6 50 3d 9f 4b d4 bc
       0.015182662 -0.06077378 0.051001195 -0.025914965
0003c0 cc a6 ad 3d 2f 5f 92 3e 3c 67 de 3d 7b 3d 07 3e
       0.084790796 0.28588244 0.10859534 0.13207047
0003d0 39 b4 3d 3e cc 8d de bd 10 e1 0e bd 51 02 a3 3e
       0.1852578 -0.10866889 -0.034882605 0.31837705
0003e0 8a e0 18 3d d4 9f 24 3e 4e 4b 35 3d 38 9d 60 3e
       0.037323512 0.16076595 0.04426127 0.21934974
0003f0 fc f6 1a 3e 17 6a 94 3e 4a c6 70 3e f4 eb 71 3e
       0.1513328 0.2898719 0.23513141 0.23625165

lstm.weight_ih_l0_reverse f4 [256, 64]
000000 64 12 b7 bc c9 e3 06 bd 4a 42 a6 bc 5f 8c b3 3c
       -0.022347637 -0.032932077 -0.020295281 0.02191752
000010 12 38 08 3e a7 c0 ea bd 61 0b c1 bc d1 fb 0c 3d
       0.13302639 -0.11462527 -0.023564996 0.03441984
000020 cb 76 19 3e 09 ce da bc dd 51 7a bd cf ec ec 3d
       0.14986722 -0.026709573 -0.061113227 0.11568605
000030 d5 cf b5 bd 36 c3 20 3d eb 1b 25 be 5b 75 2b 3c
       -0.088775314 0.039248668 -0.16123931 0.010464991
000040 93 ae df 3d a3 ea cc 3e 99 2c 0c be 86 a9 77 be
       0.10921969 0.40022764 -0.13688888 -0.24185762
000050 86 dc 95 3d 45 7f 3d 3d 62 cb 18 3e 99 03 11 be
       0.07317452 0.04626395 0.14921334 -0.14161529
000060 26 b9 72 bd 51 c2 93 be 50 57 87 3d d2 96 0b bd
       -0.059258603 -0.2885919 0.066084504 -0.03407938
000070 20 07 fc 3d cb 61 93 bb c3 0b 95 bd 22 c2 7c 3d
       0.123060465 -0.004497742 -0.07277634 0.061708577
000080 a6 fd 15 3e 16 85 7a bd bb 9e a8 bd 1c c9 da bd
       0.1464754 -0.061162077 -0.082334004 -0.1068289
000090 8f 69 94 be 28 4e 59 3e 85 c3 07 3d 69 0b 71 bd
       -0.28986785 0.2122122 0.033145446 -0.058848772
0000a0 f9 77 18 bc 8b e3 4a bd 0c 2e 0f be 9f d4 62 bd
       -0.009305947 -0.049533408 -0.13982409 -0.055378553
0000b0 6d de 04 be 6c 7c 13 3c 2e 32 18 be 3a 3f 9a bc
       -0.12975474 0.009001832 -0.14862892 -0.018828977
0000c0 2d 6c ef bc 80 1b f5 bd 4e f7 a0 bc 95 01 71 3d
       -0.029226387 -0.11968136 -0.019649174 0.0588394
0000d0 bc cc 49 be 09 a3 94 3c 60 bd e0 bd 5f 04 a9 3c
       -0.19707006 0.018144147 -0.109736204 0.020631967
0000e0 35 54 20 be 67 25 49 bd 53 db 4b 3e ba b0 04 3c
       -0.15657122 -0.049107935 0.19907884 0.0080987755
0000f0 1e 01 b2 3d 3b 6c a2 3d eb 9e 5d 3d 1b 59 03 3d
       0.08691619 0.079307996 0.054106634 0.0320674
000100 34 36 2e 3c 3d 29 2b bd ff 7d f6 bd 58 7b 99 bb
       0.01063304 -0.041787375 -0.120357506 -0.004683893
000110 22 ba 99 3d d9 20 b1 3b 3d 2d 3f 3e e5 29 90 bd
       0.07506205 0.005405527 0.18669601 -0.07039241
000120 fa 01 08 3d e6 6e 22 3d 97 a8 81 3d bc 22 10 3c
       0.03320501 0.039656542 0.06330984 0.008797344
000130 7e cb 05 bd 0a 59 0f bd 2f 28 91 3d cb 23 0c 3e
       -0.03266477 -0.034997024 0.070877425 0.13685529
000140 b1 32 20 3e 21 e1 c3 bd 26 03 27 be f6 65 d6 bd
       0.15644337 -0.09564424 -0.16309795 -0.10468666
000150 cc 71 a7 3d 54 15 a8 bc 0f 88 c8 3d 5b 5e 03 bd
       0.08176002 -0.020517983 0.09791576 -0.032072406
000160 be ca 85 3d e3 27 e1 3c dd d7 ca bd 2c 5e e2 bd
       0.06532811 0.02748484 -0.09904454 -0.11053118
000170 b6 35 be 39 ed 09 ed 3c f6 17 28 3d d5 aa 48 3d
       0.00036279642 0.028935397 0.041038476 0.048991043
000180 18 21 63 bd c4 f2 0b be 21 5e 4e be d0 d6 94 bc
       -0.055451483 -0.13666826 -0.20153095 -0.018168837
000190 65 49 25 bc 62 b3 69 3e 26 32 1e bd dd cc d1 bd
       -0.010088299 0.22822335 -0.038622044 -0.10244153
0001a0 50 1b ec bb d2 7e 49 3e cd 68 4a 3c 50 6e 2c be
       -0.0072054043 0.19677284 0.012354088 -0.16838956
0001b0 54 c0 c6 3d 5c ad 2f 3e 2a 8e 2e 3d 70 ab 6e 3d
       0.097046524 0.17155975 0.042616047 0.058268964
0001c0 88 38 e4 3d 12 19 8f be d8 b6 48 3e e5 21 2f bd
       0.11143595 -0.27948815 0.19601 -0.042756934
0001d0 ad 30 5b bc 62 c1 aa 3b 90 c0 0d 3d e8 e4 68 3c
       -0.013378304 0.0052110413 0.03460747 0.014214732
0001e0 76 87 45 bd e9 b4 27 3e a0 1f 15 3e 53 09 8d bc
       -0.04822489 0.16377605 0.14562845 -0.01721636
0001f0 6c 5c ac bd 2f ec 24 3e 4f b4 17 3d cf c5 b3 bd
       -0.084160656 0.16105722 0.03703719 -0.08777963
000200 e9 c9 9e bd ad 06 45 be 81 45 80 bc 5b 1e 28 3e
       -0.07753355 -0.19240828 -0.015658142 0.1641783
000210 95 38 e0 bd df 98 6d be 73 cd 5f 3d ba b4 3d be
       -0.10948292 -0.23202847 0.05463929 -0.18525973
000220 e6 83 74 be 9a 0d 10 be 12 69 35 bd 9f 1e bb bd
       -0.2387844 -0.14067689 -0.044289656 -0.091367
000230 fc 76 66 3c cf 49 a4 3d ff c4 33 bb b2 e8 3f 3d
       0.014066454 0.0802189 -0.0027430651 0.046852775
000240 14 95 fc bd f9 53 74 3c d0 1d 32 be 9d d2 46 bb
       -0.12333122 0.014912599 -0.17394185 -0.0030337938
000250 29 08 33 3e 6e dc 08 3e f2 9f 06 3d b1 a0 ae 3d
       0.17483582 0.13365337 0.03286738 0.08526743
000260 3a f3 a8 3d 10 c7 1c be dd bb a7 3d a4 31 50 3c
       0.08249517 -0.15310311 0.08190129 0.012707148
000270 62 22 13 be 7a 30 fe bd 6c fc cb bd 59 af dd 3d
       -0.14368585 -0.1241159 -0.09960255 0.108244605
000280 b0 c4 2d 3d 1c 01 6d 3d df 65 48 3d e2 ae 89 be
       0.042423904 0.057862386 0.048925277 -0.26891237
000290 38 e4 cb 3d 69 e8 07 3d 95 df ca bd 1f 23 3b be
       0.09955639 0.033180628 -0.09905926 -0.18275116
0002a0 a4 05 16 bb 92 54 d8 3d d7 72 aa bd 7b 8a 4d 3c
       -0.0022891546 0.105630055 -0.08322685 0.012545223
0002b0 c2 9f 2d be a5 2f 48 bd f5 10 06 3d 2b 1c 80 be
       -0.16955474 -0.048873562 0.032731015 -0.2502149
0002c0 b4 60 e8 3b 40 43 c4 3d b9 8e 73 3d 40 7a 41 bb
       0.007091606 0.095831394 0.059462283 -0.002952233
0002d0 87 1f a3 bd d6 ea 11 bd 89 a1 8a 3d 7e ee 51 3e
       -0.07964998 -0.035624348 0.06769092 0.20501134
0002e0 7a aa 9b bd 8e b1 46 3d d1 fb ff 3d 6c 2a 15 be
       -0.07600875 0.048509173 0.12499202 -0.14566964
0002f0 11 9a 87 bd 8b f8 b6 bd bc 96 ee 3d 0c 54 48 bd
       -0.06621183 -0.089341246 0.11649844 -0.04890828
000300 0f ec 45 3e f7 fd 6e be 03 60 8e 3e 1c d1 d1 bd
       0.1932833 -0.23339067 0.27807626 -0.102449626
000310 ef 84 29 bd 4b 57 a9 bd b0 fe 95 3d 60 54 35 bd
       -0.04138654 -0.08268603 0.073239684 -0.04426992
000320 f3 16 a7 bc c0 1d 65 3e de 56 d9 bd 3f 8a 0a bd
       -0.020396685 0.2237463 -0.10612272 -0.033823248
000330 06 c1 21 3c ed 3e 4e 3e c2 b4 d0 bd a7 c0 a0 3d
       0.0098726805 0.20141192 -0.10190727 0.078492455
000340 12 01 c7 bb 63 2d 9a 3d de fa da 3c b6 38 48 bd
       -0.0060731256 0.07528188 0.02673095 -0.04888221
000350 00 8d 75 3d 3e a7 84 3d 7a b5 0c 3d 86 a6 2b 3d
       0.05994892 0.064772114 0.034352757 0.041906856
000360 3f 2d 55 be 99 b0 e6 bd 22 7a 43 3e 00 c8 54 be
       -0.20818041 -0.11264152 0.19089559 -0.20779419
000370 b4 da 7c ba bf 55 05 bd 63 93 d3 bc f5 35 81 bc
       -0.00096456264 -0.032552477 -0.025827115 -0.015772799
000380 80 5d 3b 3c fd 9e 13 3d 1f dc 8e be 96 fb 09 3e
       0.011435866 0.036040295 -0.27902314 0.13474879
000390 7f cf d9 3c 20 e9 5d 3e 8f ec 0d be 0a 06 90 bc
       0.0265882 0.21670961 -0.13859771 -0.017581005
0003a0 58 b9 67 3c 8f e8 05 3e 47 8a f7 bc f6 af 7a 3d
       0.0141433105 0.13076995 -0.030217303 0.061202966
0003b0 4b d2 93 bd bd 38 5a 3e d2 5f 96 bd 68 7f a8 ba
       -0.072178446 0.21310706 -0.07342495 -0.0012855353
0003c0 3b 95 36 3d 2b 82 96 3d 22 db 2b be 02 85 9a 3d
       0.04457591 0.07349046 -0.16782811 0.075449005
0003d0 68 e6 28 bb 57 0b 1f bd 87 a1 9d bd 90 09 bd bd
       -0.0025772098 -0.038829174 -0.076968245 -0.092303395
0003e0 18 96 bd bd 69 b2 c1 bd a4 12 7c 3d 06 d2 46 bd
       -0.09257144 -0.09457857 0.061541215 -0.048540138
0003f0 fe 72 cf bd e4 ff cf 3a 25 db 36 3c de 4a 08 3d
       -0.10129355 0.0015869108 0.011160647 0.033274524

lstm.weight_hh_l0_reverse f4 [256, 64]
000000 91 63 80 bc a2 b9 d0 ba 14 b5 0e be 10 4c 65 3e
       -0.015672477 -0.0015924464 -0.13936263 0.22392297
000010 a0 5e 8e ba 72 4f 36 3e 56 68 0a 3e f1 7b 62 3d
       -0.0010861941 0.17803743 0.13516364 0.05529398
000020 0c 25 2e bc 08 a2 40 be b7 f7 9f 3c ff 85 c3 bd
       -0.01062895 -0.1881181 0.0195273 -0.09547042
000030 06 9f 26 3e 52 65 09 be 1b 4f 06 3e 66 e5 1a be
       0.162716 -0.13417557 0.13116114 -0.15126571
000040 77 02 00 bd 40 43 12 be 4b 84 b7 3b e5 c7 55 be
       -0.03125235 -0.14283466 0.0056004873 -0.20877035
000050 89 ec 5d 3e ce 6c 05 bd 97 30 65 3d f1 0b 87 3d
       0.21672262 -0.032574467 0.055954542 0.065940745
000060 0d fb 54 3e 27 9e 7f be fc 08 e7 bd c0 64 9a 3e
       0.20798893 -0.24962674 -0.112810105 0.3015499
000070 ab 99 a1 be 99 c0 10 3e c2 40 06 be 62 41 0c be
       -0.31562552 0.1413597 -0.1311064 -0.13696817
000080 23 41 e0 3d dd 57 17 3c 1f 23 a2 3e 87 fb bf 3c
       0.10949924 0.009237257 0.3166742 0.023435367
000090 87 d9 37 be f4 2c 9a bd b3 99 7c 3e 2a e1 04 be
       -0.17954074 -0.075281054 0.24668007 -0.12976518
0000a0 f0 c0 6d bd 32 fd aa be c3 07 fa 3d da 0d 99 bd
       -0.058045328 -0.33396298 0.12208512 -0.07473345
0000b0 a4 8a 8b 3c ae 62 a7 bb 45 69 0e 3e d1 4e 6c 3d
       0.017033882 -0.005108199 0.13907345 0.057692353
0000c0 cf 7c 37 3e ac 23 80 3e 37 d0 07 be 49 1a 96 be
       0.17918704 0.25027215 -0.13263021 -0.2931693
0000d0 d9 c4 60 3e ae 69 98 bd a6 43 19 be a3 5b b6 3d
       0.21950091 -0.07442032 -0.14967212 0.08904197
0000e0 e1 bc 0f bd 85 5f e2 bd bb ed 69 be 95 e8 7b be
       -0.03509224 -0.11053375 -0.22844593 -0.24600442
0000f0 3d c5 d0 3c c4 da f2 3a 73 90 c6 be d7 e8 7c bd
       0.025484676 0.0018528332 -0.3878208 -0.06174549
000100 53 e5 03 be 1f af d7 bd ea f9 21 3d 25 bc c0 bc
       -0.12880449 -0.105314486 0.039544977 -0.023527214
000110 09 17 50 be 98 b2 38 3e cd 09 2d be c4 7f 18 be
       -0.20321287 0.18036878 -0.1689827 -0.14892489
000120 20 b3 39 3e 3a 5e 80 bd 70 fb 71 be 28 59 78 bd
       0.18134737 -0.06267972 -0.23631072 -0.0606319
000130 80 85 7f 3e b5 51 ec bc 0a ec 81 be 49 cc 49 be
       0.2495327 -0.028847555 -0.25375396 -0.19706835
000140 bf cb d4 bc 79 dc 87 bd 06 3f a7 bd 7c 77 46 bc
       -0.02597606 -0.06633849 -0.08166318 -0.012113448
000150 38 87 37 3e 4a 7c 07 be 13 6e 0d bd 4c ea 41 3c
       0.17922676 -0.13231006 -0.034528803 0.011835646
000160 90 da 2a be 83 4f f1 3d 61 6c 15 3e f3 02 55 bd
       -0.16684937 0.11782744 0.14592125 -0.052004766
000170 ba 53 78 be a0 ab 7f 3d 7d 6b 5b bd 89 b9 f5 3c
       -0.24250689 0.062419534 -0.053569306 0.029995697
000180 e2 08 c6 3d 73 0a 57 3e 17 27 03 3e 56 e8 fc bd
       0.09669663 0.2100008 0.1280788 -0.12349002
000190 8b ac 0a be c4 c0 db bd 70 81 f2 3b 69 f5 40 be
       -0.13542382 -0.107301265 0.007400684 -0.18843617
0001a0 6b 0a 12 be a9 bf 5e bd ca 54 29 3d 96 1c 7a 3c
       -0.14261787 -0.054382 0.041340627 0.0152656045
0001b0 8c 88 e0 3d 80 de 7b be 49 b4 f9 bd 7a 9e 1c 3d
       0.10963544 -0.24596596 -0.1219259 0.038237073
0001c0 d4 b9 84 3e 3a 68 8b 3e 30 ae 78 3d 04 af 4c 3c
       0.25923026 0.27227956 0.060712993 0.012492899
0001d0 f5 0e 28 3e 78 79 4c be ba dc 8f be dd 2c 78 be
       0.16411956 -0.19968212 -0.28098089 -0.24235864
0001e0 34 0f f7 bd 05 2e 8c 3e 95 20 98 bd ad 13 61 be
       -0.12063447 0.2737886 -0.074280895 -0.21980162
0001f0 0c 48 56 3d 62 58 a1 3d 47 73 81 be 49 56 de 3d
       0.052314803 0.07878186 -0.25283262 0.10856301
000200 f8 bf cd 3d 7f 0a 0f 3d ac 10 78 be f9 ce 25 be
       0.10046381 0.03492212 -0.2422511 -0.16192235
000210 00 5d 80 be ab 7f 2f bd 67 d5 10 3e cc e6 ff bd
       -0.25070953 -0.042846363 0.14143907 -0.12495193
000220 57 11 7a 3e bd c1 e3 bd d3 f4 49 3d d2 4b 9e bd
       0.24420677 -0.11120937 0.04930575 -0.07729305
000230 ab 88 d4 3d 4d ec 89 3d 0a e7 40 3e 18 51 25 be
       0.1037763 0.06734524 0.18838134 -0.16144216
000240 bd b7 82 be cf f4 95 3d 69 14 2e bd 24 80 6e 3e
       -0.25530806 0.07322084 -0.042499933 0.2329107
000250 fa 3b 0e 3e 80 04 1d bd 53 fc 15 3e bf 21 e4 3d
       0.13890067 -0.03833437 0.14647035 0.11139249
000260 28 e9 f7 3d a2 12 52 bd b8 2c 92 3d f0 49 af 3c
       0.12105018 -0.0512873 0.07137436 0.02139756
000270 ae 9b 88 bc cf ce d7 bc 95 d1 9d 3e c2 f2 39 bc
       -0.016675796 -0.026343731 0.3082396 -0.011349382
000280 94 9b 86 3c 93 bd 63 bd 6b 46 b5 3d 2d bd 1f 3d
       0.016431607 -0.055600714 0.08851322 0.03899877
000290 11 82 45 be b7 9f e2 bb 07 43 94 3d 8e c4 7a 3d
       -0.19287898 -0.006916012 0.07239347 0.061222605
0002a0 d6 f5 df 3d 46 ac e2 3d 94 29 d4 bc 7f 83 7a bd
       0.10935561 0.11068015 -0.025898732 -0.06116056
0002b0 de f5 89 3e d0 a6 73 3e 19 a9 f8 bd 61 f0 e6 bd
       0.26945394 0.23794103 -0.12141628 -0.112763174
0002c0 0d b5 71 bd a5 bf 01 3d 08 8d 9b be 73 e1 34 bd
       -0.059010554 0.031676907 -0.30381036 -0.044160318
0002d0 f0 86 0b 3e 2c 45 22 3e 2b dc b6 bd 10 5f bb 3d
       0.13625693 0.158467 -0.089287125 0.09148991
0002e0 e3 37 84 3d 44 fe e9 3d 44 96 bc 3c 4b 39 3f bc
       0.06455972 0.114254504 0.023020871 -0.011671375
0002f0 a4 84 c8 3d d4 67 11 3e ae 3d 16 3e 8b c9 3d be
       0.09790924 0.14199764 0.14671966 -0.18533914
000300 23 3f df bd e4 6d 09 be 29 b8 11 bd 99 18 ec 3d
       -0.10900714 -0.13420826 -0.03557602 0.11528129
000310 76 0f 28 be 41 04 2e 3e d9 dd 0f bf b8 8a f7 3e
       -0.16412148 0.1699381 -0.5619789 0.48348022
000320 0b fd 4b bd 2b e9 86 3e 8f 2a 01 be ad 9a 12 be
       -0.049801867 0.26349768 -0.12613891 -0.14316817
000330 7d 66 91 3e c0 46 fd 3d a5 c3 81 be f0 02 19 be
       0.28398505 0.1236701 -0.25344577 -0.14942527
000340 0e 26 21 3d 3f 75 0f 3e cd ae c6 bc d8 cd 09 bf
       0.039342932 0.1400957 -0.024253273 -0.5382972
000350 81 63 ee bb f4 bb b0 bd 4c 79 ba bd 8f 8a 74 be
       -0.0072750454 -0.08629599 -0.09105167 -0.23880981
000360 7d 60 97 bd b3 76 83 be 55 be a4 3b f5 b2 14 3e
       -0.073914506 -0.25676498 0.005027572 0.14521392
000370 61 25 89 be b6 3b 85 bb ed 91 aa 3d 2c 8c 48 3e
       -0.2678633 -0.004065956 0.083286144 0.19584721
000380 30 47 29 3e ff f0 d7 3d 4a e3 83 3e 09 72 d7 bd
       0.16531062 0.10544013 0.25759345 -0.10519797
000390 20 1d 4c bc a1 91 d8 be 3e 1e f4 3d 13 5b 43 be
       -0.012458116 -0.42298606 0.11919831 -0.19077711
0003a0 71 99 22 3e 05 b5 9f be 5d 77 e9 3d 27 01 4a be
       0.15878846 -0.31192794 0.1139972 -0.19727002
0003b0 7b 84 ca be 1d 5b 77 3c a9 11 27 bd 86 af b5 3e
       -0.395542 0.015097407 -0.040788326 0.35485476
0003c0 00 ea 9b 3e a1 16 22 3d a1 97 9e bd 12 ac 3d 3e
       0.30451965 0.03957236 -0.07743765 0.18522671
0003d0 e6 a6 59 3d e5 d1 1f bd 5a 84 9f bd 71 e6 2b be
       0.053137682 -0.03901853 -0.07788916 -0.16787125
0003e0 a7 2a 71 3e 41 67 f1 3b 75 33 ae bd 2a b7 5a be
       0.23551427 0.007367045 -0.085059084 -0.21358934
0003f0 0f b5 18 3e 55 31 03 3e c9 e7 d3 be 42 25 91 bd
       0.14912818 0.12811787 -0.41387776 -0.070871845
